=> fetching img pairs in /data2/datasets/ruoguli/PS_Blobby_Dataset
	 Found Data: 25661 Train and 259 Val
	 Train Batch 64, Val Batch: 8
Creating Model PS_FCN_CBN
[Network Input] Color image as input
[Network Input] Adding Light direction as input
[Network Input] Input channel: 6
Conv pad = 1
Conv pad = 1
Conv pad = 1
=> using pre-trained model /data2/datasets/ruoguli/idl_project_datas/PS-FCN_B_S_32.pth.tar
Detailed loading log saved to: logs/loading_log_20250416-032255.txt
PS_FCN_CBN(
  (brdf_embed_block): BRDF_EmbedBlock(
    (embed_transform): Linear(in_features=14, out_features=512, bias=True)
  )
  (extractor): FeatExtractor_CBN(
    (conv1): Conditional_Conv(
      (regular_conv): Conv2d(6, 64, kernel_size=(3, 3), stride=(1, 1), padding=(1, 1))
      (cBatchNorm): CBN(
        (fc_gamma): Sequential(
          (0): Linear(in_features=512, out_features=512, bias=True)
          (1): ReLU(inplace=True)
          (2): Linear(in_features=512, out_features=64, bias=True)
        )
        (fc_beta): Sequential(
          (0): Linear(in_features=512, out_features=512, bias=True)
          (1): ReLU(inplace=True)
          (2): Linear(in_features=512, out_features=64, bias=True)
        )
      )
      (activation): LeakyReLU(negative_slope=0.1, inplace=True)
    )
    (conv2): Conditional_Conv(
      (regular_conv): Conv2d(64, 128, kernel_size=(3, 3), stride=(2, 2), padding=(1, 1))
      (cBatchNorm): CBN(
        (fc_gamma): Sequential(
          (0): Linear(in_features=512, out_features=512, bias=True)
          (1): ReLU(inplace=True)
          (2): Linear(in_features=512, out_features=128, bias=True)
        )
        (fc_beta): Sequential(
          (0): Linear(in_features=512, out_features=512, bias=True)
          (1): ReLU(inplace=True)
          (2): Linear(in_features=512, out_features=128, bias=True)
        )
      )
      (activation): LeakyReLU(negative_slope=0.1, inplace=True)
    )
    (conv3): Conditional_Conv(
      (regular_conv): Conv2d(128, 128, kernel_size=(3, 3), stride=(1, 1), padding=(1, 1))
      (cBatchNorm): CBN(
        (fc_gamma): Sequential(
          (0): Linear(in_features=512, out_features=512, bias=True)
          (1): ReLU(inplace=True)
          (2): Linear(in_features=512, out_features=128, bias=True)
        )
        (fc_beta): Sequential(
          (0): Linear(in_features=512, out_features=512, bias=True)
          (1): ReLU(inplace=True)
          (2): Linear(in_features=512, out_features=128, bias=True)
        )
      )
      (activation): LeakyReLU(negative_slope=0.1, inplace=True)
    )
    (conv4): Conditional_Conv(
      (regular_conv): Conv2d(128, 256, kernel_size=(3, 3), stride=(2, 2), padding=(1, 1))
      (cBatchNorm): CBN(
        (fc_gamma): Sequential(
          (0): Linear(in_features=512, out_features=512, bias=True)
          (1): ReLU(inplace=True)
          (2): Linear(in_features=512, out_features=256, bias=True)
        )
        (fc_beta): Sequential(
          (0): Linear(in_features=512, out_features=512, bias=True)
          (1): ReLU(inplace=True)
          (2): Linear(in_features=512, out_features=256, bias=True)
        )
      )
      (activation): LeakyReLU(negative_slope=0.1, inplace=True)
    )
    (conv5): Conditional_Conv(
      (regular_conv): Conv2d(256, 256, kernel_size=(3, 3), stride=(1, 1), padding=(1, 1))
      (cBatchNorm): CBN(
        (fc_gamma): Sequential(
          (0): Linear(in_features=512, out_features=512, bias=True)
          (1): ReLU(inplace=True)
          (2): Linear(in_features=512, out_features=256, bias=True)
        )
        (fc_beta): Sequential(
          (0): Linear(in_features=512, out_features=512, bias=True)
          (1): ReLU(inplace=True)
          (2): Linear(in_features=512, out_features=256, bias=True)
        )
      )
      (activation): LeakyReLU(negative_slope=0.1, inplace=True)
    )
    (conv6): Sequential(
      (0): ConvTranspose2d(256, 128, kernel_size=(4, 4), stride=(2, 2), padding=(1, 1), bias=False)
      (1): LeakyReLU(negative_slope=0.1, inplace=True)
    )
    (conv7): Sequential(
      (0): Conv2d(128, 128, kernel_size=(3, 3), stride=(1, 1), padding=(1, 1))
      (1): LeakyReLU(negative_slope=0.1, inplace=True)
    )
  )
  (regressor): Regressor_CBN(
    (deconv1): Sequential(
      (0): Conv2d(128, 128, kernel_size=(3, 3), stride=(1, 1), padding=(1, 1))
      (1): LeakyReLU(negative_slope=0.1, inplace=True)
    )
    (deconv2): Sequential(
      (0): Conv2d(128, 128, kernel_size=(3, 3), stride=(1, 1), padding=(1, 1))
      (1): LeakyReLU(negative_slope=0.1, inplace=True)
    )
    (deconv3): Sequential(
      (0): ConvTranspose2d(128, 64, kernel_size=(4, 4), stride=(2, 2), padding=(1, 1), bias=False)
      (1): LeakyReLU(negative_slope=0.1, inplace=True)
    )
    (est_normal): Sequential(
      (0): Conv2d(64, 3, kernel_size=(3, 3), stride=(1, 1), padding=(1, 1), bias=False)
    )
  )
)
=> Model Parameters: 5699584
=> Using adam solver for optimization
=> Using cos for criterion normal
---- Start Training Epoch 1: 401 batches ----
---- Start val Epoch 1: 33 batches ----
Best model saved at epoch 1
Save epoch model at 1
Epoch 1: train_loss 0.3011, val_n_err 8.0794
---- Start Training Epoch 2: 401 batches ----
…
