…
mg pairs in /data2/datasets/ruoguli/PS_Blobby_Dataset
	 Found Data: 25661 Train and 259 Val
	 Train Batch 64, Val Batch: 8
Creating Model PS_FCN_FiLM
[Network Input] Color image as input
[Network Input] Adding Light direction as input
[Network Input] Input channel: 6
Conv pad = 1
Conv pad = 1
Conv pad = 1
Conv pad = 1
Conv pad = 1
Conv pad = 1
=> using pre-trained model /data2/datasets/ruoguli/idl_project_datas/PS-FCN_B_S_32.pth.tar
Detailed loading log saved to: logs/loading_log_20250416-151526.txt
PS_FCN_FiLM(
  (brdf_embed_block): BRDF_EmbedBlock(
    (embed_transform): Sequential(
      (0): Linear(in_features=14, out_features=512, bias=True)
      (1): LeakyReLU(negative_slope=0.1)
    )
  )
  (extractor): FeatExtractor(
    (conv1): FiLMConv(
      (conv): Conv2d(6, 64, kernel_size=(3, 3), stride=(1, 1), padding=(1, 1))
      (relu): LeakyReLU(negative_slope=0.1, inplace=True)
      (FiLMGnerator): Linear(in_features=512, out_features=128, bias=True)
      (FiLMBlock): FiLMBlock()
    )
    (conv2): FiLMConv(
      (conv): Conv2d(64, 128, kernel_size=(3, 3), stride=(2, 2), padding=(1, 1))
      (relu): LeakyReLU(negative_slope=0.1, inplace=True)
      (FiLMGnerator): Linear(in_features=512, out_features=256, bias=True)
      (FiLMBlock): FiLMBlock()
    )
    (conv3): FiLMConv(
      (conv): Conv2d(128, 128, kernel_size=(3, 3), stride=(1, 1), padding=(1, 1))
      (relu): LeakyReLU(negative_slope=0.1, inplace=True)
      (FiLMGnerator): Linear(in_features=512, out_features=256, bias=True)
      (FiLMBlock): FiLMBlock()
    )
    (conv4): FiLMConv(
      (conv): Conv2d(128, 256, kernel_size=(3, 3), stride=(2, 2), padding=(1, 1))
      (relu): LeakyReLU(negative_slope=0.1, inplace=True)
      (FiLMGnerator): Linear(in_features=512, out_features=512, bias=True)
      (FiLMBlock): FiLMBlock()
    )
    (conv5): FiLMConv(
      (conv): Conv2d(256, 256, kernel_size=(3, 3), stride=(1, 1), padding=(1, 1))
      (relu): LeakyReLU(negative_slope=0.1, inplace=True)
      (FiLMGnerator): Linear(in_features=512, out_features=512, bias=True)
      (FiLMBlock): FiLMBlock()
    )
    (conv6): Sequential(
      (0): ConvTranspose2d(256, 128, kernel_size=(4, 4), stride=(2, 2), padding=(1, 1), bias=False)
      (1): LeakyReLU(negative_slope=0.1, inplace=True)
    )
    (conv7): Sequential(
      (0): Conv2d(128, 128, kernel_size=(3, 3), stride=(1, 1), padding=(1, 1))
      (1): LeakyReLU(negative_slope=0.1, inplace=True)
    )
  )
  (regressor): Regressor(
    (deconv1): Sequential(
      (0): Conv2d(128, 128, kernel_size=(3, 3), stride=(1, 1), padding=(1, 1))
      (1): LeakyReLU(negative_slope=0.1, inplace=True)
    )
    (deconv2): Sequential(
      (0): Conv2d(128, 128, kernel_size=(3, 3), stride=(1, 1), padding=(1, 1))
      (1): LeakyReLU(negative_slope=0.1, inplace=True)
    )
    (deconv3): Sequential(
      (0): ConvTranspose2d(128, 64, kernel_size=(4, 4), stride=(2, 2), padding=(1, 1), bias=False)
      (1): LeakyReLU(negative_slope=0.1, inplace=True)
    )
    (est_normal): Sequential(
      (0): Conv2d(64, 3, kernel_size=(3, 3), stride=(1, 1), padding=(1, 1), bias=False)
    )
  )
)
=> Model Parameters: 3071360
=> Using adam solver for optimization
=> Using cos for criterion normal
---- Start Training Epoch 1: 401 batches ----
---- Start val Epoch 1: 33 batches ----
Save epoch model at 1
Epoch 1: train_loss 0.2781, val_n_err 5.7200
---- Start Training Epoch 2: 401 batches ----
---- Start val Epoch 2: 33 batches ----
…
